…
device_type: "CPU"
memory_limit: 268435456
locality {
}
incarnation: 12660137004431509209
xla_global_id: -1
]

Total Number of Images: 11788

Collecting Training Data...
Found 11788 files belonging to 200 classes.
Using 9431 files for training.

Collecting Validation Data...
Found 11788 files belonging to 200 classes.
Using 2357 files for validation.
Model: "sequential"
_________________________________________________________________
 Layer (type)                Output Shape              Param #   
=================================================================
 random_flip (RandomFlip)    (None, 200, 200, 3)       0         
                                                                 
 random_rotation (RandomRota  (None, 200, 200, 3)      0         
 tion)                                                           
                                                                 
 random_zoom (RandomZoom)    (None, 200, 200, 3)       0         
                                                                 
 rescaling (Rescaling)       (None, 200, 200, 3)       0         
                                                                 
 conv2d (Conv2D)             (None, 48, 48, 128)       46592     
                                                                 
 batch_normalization (BatchN  (None, 48, 48, 128)      512       
 ormalization)                                                   
                                                                 
 max_pooling2d (MaxPooling2D  (None, 24, 24, 128)      0         
 )                                                               
                                                                 
 conv2d_1 (Conv2D)           (None, 24, 24, 256)       819456    
                                                                 
 batch_normalization_1 (Batc  (None, 24, 24, 256)      1024      
 hNormalization)                                                 
                                                                 
 max_pooling2d_1 (MaxPooling  (None, 8, 8, 256)        0         
 2D)                                                             
                                                                 
 conv2d_2 (Conv2D)           (None, 8, 8, 256)         590080    
                                                                 
 batch_normalization_2 (Batc  (None, 8, 8, 256)        1024      
 hNormalization)                                                 
                                                                 
 conv2d_3 (Conv2D)           (None, 8, 8, 256)         65792     
                                                                 
 batch_normalization_3 (Batc  (None, 8, 8, 256)        1024      
 hNormalization)                                                 
                                                                 
 conv2d_4 (Conv2D)           (None, 8, 8, 256)         65792     
                                                                 
 batch_normalization_4 (Batc  (None, 8, 8, 256)        1024      
 hNormalization)                                                 
                                                                 
 max_pooling2d_2 (MaxPooling  (None, 4, 4, 256)        0         
 2D)                                                             
                                                                 
 flatten (Flatten)           (None, 4096)              0         
                                                                 
 dense (Dense)               (None, 1024)              4195328   
                                                                 
 dropout (Dropout)           (None, 1024)              0         
                                                                 
 dense_1 (Dense)             (None, 512)               524800    
                                                                 
 dropout_1 (Dropout)         (None, 512)               0         
                                                                 
 dense_2 (Dense)             (None, 200)               102600    
                                                                 
=================================================================
Total params: 6,415,048
Trainable params: 6,412,744
Non-trainable params: 2,304
_________________________________________________________________
Epoch 1/50
  1/148 [..............................] - ETA: 1:05:14 - loss: 6.1907 - accuracy: 0.0000e+00
…
