…
 on ptolemy-gpu-01
SLURM Job ID: 28825
SLURM Task ID: 
SLURM Node List: ptolemy-gpu-01
SLURM CPUS on Node: 12

Total Number of Images: 11788

Collecting Training Data...
Found 11788 files belonging to 200 classes.
Using 9431 files for training.

Collecting Validation Data...
Found 11788 files belonging to 200 classes.
Using 2357 files for validation.
Model: "sequential"
_________________________________________________________________
 Layer (type)                Output Shape              Param #   
=================================================================
 random_flip (RandomFlip)    (None, 200, 200, 3)       0         
                                                                 
 random_rotation (RandomRota  (None, 200, 200, 3)      0         
 tion)                                                           
                                                                 
 random_zoom (RandomZoom)    (None, 200, 200, 3)       0         
                                                                 
 rescaling (Rescaling)       (None, 200, 200, 3)       0         
                                                                 
 conv2d (Conv2D)             (None, 200, 200, 64)      1792      
                                                                 
 conv2d_1 (Conv2D)           (None, 200, 200, 64)      36928     
                                                                 
 batch_normalization (BatchN  (None, 200, 200, 64)     256       
 ormalization)                                                   
                                                                 
 max_pooling2d (MaxPooling2D  (None, 100, 100, 64)     0         
 )                                                               
                                                                 
 conv2d_2 (Conv2D)           (None, 100, 100, 128)     73856     
                                                                 
 conv2d_3 (Conv2D)           (None, 100, 100, 128)     147584    
                                                                 
 batch_normalization_1 (Batc  (None, 100, 100, 128)    512       
 hNormalization)                                                 
                                                                 
 max_pooling2d_1 (MaxPooling  (None, 50, 50, 128)      0         
 2D)                                                             
                                                                 
 conv2d_4 (Conv2D)           (None, 50, 50, 256)       295168    
                                                                 
 conv2d_5 (Conv2D)           (None, 50, 50, 256)       590080    
                                                                 
 batch_normalization_2 (Batc  (None, 50, 50, 256)      1024      
 hNormalization)                                                 
                                                                 
 max_pooling2d_2 (MaxPooling  (None, 25, 25, 256)      0         
 2D)                                                             
                                                                 
 conv2d_6 (Conv2D)           (None, 25, 25, 256)       590080    
                                                                 
 conv2d_7 (Conv2D)           (None, 25, 25, 256)       590080    
                                                                 
 batch_normalization_3 (Batc  (None, 25, 25, 256)      1024      
 hNormalization)                                                 
                                                                 
 max_pooling2d_3 (MaxPooling  (None, 12, 12, 256)      0         
 2D)                                                             
                                                                 
 flatten (Flatten)           (None, 36864)             0         
                                                                 
 dense (Dense)               (None, 256)               9437440   
                                                                 
 dropout (Dropout)           (None, 256)               0         
                                                                 
 dense_1 (Dense)             (None, 128)               32896     
                                                                 
 dropout_1 (Dropout)         (None, 128)               0         
                                                                 
 dense_2 (Dense)             (None, 200)               25800     
                                                                 
=================================================================
Total params: 11,824,520
Trainable params: 11,823,112
Non-trainable params: 1,408
_________________________________________________________________
Epoch 1/50
  1/148 [..............................] - ETA: 2:25:10 - loss: 5.9791 - accuracy: 0.0000e+00
…
