…
device_type: "CPU"
memory_limit: 268435456
locality {
}
incarnation: 12262622587201694054
xla_global_id: -1
]


Total Number of Images: 11788

Collecting Training Data...
Found 11788 files belonging to 200 classes.
Using 9431 files for training.

Collecting Validation Data...
Found 11788 files belonging to 200 classes.
Using 2357 files for validation.
Model: "sequential"
_________________________________________________________________
 Layer (type)                Output Shape              Param #   
=================================================================
 random_flip (RandomFlip)    (None, 200, 200, 3)       0         
                                                                 
 random_rotation (RandomRota  (None, 200, 200, 3)      0         
 tion)                                                           
                                                                 
 random_zoom (RandomZoom)    (None, 200, 200, 3)       0         
                                                                 
 rescaling (Rescaling)       (None, 200, 200, 3)       0         
                                                                 
 conv2d (Conv2D)             (None, 200, 200, 16)      448       
                                                                 
 max_pooling2d (MaxPooling2D  (None, 100, 100, 16)     0         
 )                                                               
                                                                 
 conv2d_1 (Conv2D)           (None, 100, 100, 32)      4640      
                                                                 
 max_pooling2d_1 (MaxPooling  (None, 50, 50, 32)       0         
 2D)                                                             
                                                                 
 conv2d_2 (Conv2D)           (None, 50, 50, 64)        18496     
                                                                 
 max_pooling2d_2 (MaxPooling  (None, 25, 25, 64)       0         
 2D)                                                             
                                                                 
 flatten (Flatten)           (None, 40000)             0         
                                                                 
 dense (Dense)               (None, 128)               5120128   
                                                                 
 dense_1 (Dense)             (None, 200)               25800     
                                                                 
=================================================================
Total params: 5,169,512
Trainable params: 5,169,512
Non-trainable params: 0
_________________________________________________________________
Epoch 1/50
  1/148 [..............................] - ETA: 53:23 - loss: 5.2880 - accuracy: 0.0156
…
